ST Edge AI Core v2.2.0-20266 2adc00962
Created date          : 2026-07-22 15:19:43
Parameters            : generate --target stm32l4 --name network -m D:/Nitte_TinyML_Workshop/TinyML_Workshop/ONNX/mlp_model.onnx --compression none --verbosity 1 --workspace C:/Users/MIT/AppData/Local/Temp/mxAI_workspace4523814254261001241510289242825454 --output C:/Users/MIT/.stm32cubemx/network_output

Exec/report summary (generate)
----------------------------------------------------------------------------------------------------------
model file         :   D:\Nitte_TinyML_Workshop\TinyML_Workshop\ONNX\mlp_model.onnx                       
type               :   onnx                                                                               
c_name             :   network                                                                            
compression        :   none                                                                               
options            :   allocate-inputs, allocate-outputs                                                  
optimization       :   balanced                                                                           
target/series      :   stm32l4                                                                            
workspace dir      :   C:\Users\MIT\AppData\Local\Temp\mxAI_workspace4523814254261001241510289242825454   
output dir         :   C:\Users\MIT\.stm32cubemx\network_output                                           
model_fmt          :   float                                                                              
model_name         :   mlp_model                                                                          
model_hash         :   0x9730d768958be9e4562e5107bd0a979c                                                 
params #           :   2,693 items (10.52 KiB)                                                            
----------------------------------------------------------------------------------------------------------
input 1/1          :   'input', f32(1x6), 24 Bytes, activations                                           
output 1/1         :   'output', f32(1x5), 20 Bytes, activations                                          
macc               :   2,789                                                                              
weights (ro)       :   10,772 B (10.52 KiB) (1 segment)                                                   
activations (rw)   :   384 B (384 B) (1 segment) *                                                        
ram (total)        :   384 B (384 B) = 384 + 0 + 0                                                        
----------------------------------------------------------------------------------------------------------
(*) 'input'/'output' buffers are allocated in the activations buffer

Model name - mlp_model
------ -------------------------------- ------------- ------------- ------- -------------- --- --------------- ----------------- ------------------ 
m_id   layer (type,original)            oshape        param/size       macc   connected to   | c_size          c_macc            c_type             
------ -------------------------------- ------------- ------------- ------- -------------- --- --------------- ----------------- ------------------ 
1      fc1_weight (Placeholder, Gemm)   [b:64,c:6]    384/1,536                              | +256(+16.7%)    +448(+100.0%)     Dense_[0]          
       fc1_bias (Placeholder, Gemm)     [b:64]        64/256                                 | -256(-100.0%)                     
------ -------------------------------- ------------- ------------- ------- -------------- --- --------------- ----------------- ------------------ 
3      fc2_weight (Placeholder, Gemm)   [b:32,c:64]   2,048/8,192                            | +128(+1.6%)     +2,080(+100.0%)   Dense_[2]          
       fc2_bias (Placeholder, Gemm)     [b:32]        32/128                                 | -128(-100.0%)                     
------ -------------------------------- ------------- ------------- ------- -------------- --- --------------- ----------------- ------------------ 
5      fc3_weight (Placeholder, Gemm)   [b:5,c:32]    160/640                                | +20(+3.1%)      +165(+100.0%)     Dense_[o][4]       
       fc3_bias (Placeholder, Gemm)     [b:5]         5/20                                   | -20(-100.0%)                      
------ -------------------------------- ------------- ------------- ------- -------------- --- --------------- ----------------- ------------------ 
0      input (Input, )                  [b:1,c:6]                                            |                                   
------ -------------------------------- ------------- ------------- ------- -------------- --- --------------- ----------------- ------------------ 
1      linear (Gemm, Gemm)              [b:1,c:64]                      448          input   |                 -448(-100.0%)     
                                                                                fc1_weight   | 
                                                                                  fc1_bias   | 
------ -------------------------------- ------------- ------------- ------- -------------- --- --------------- ----------------- ------------------ 
2      relu (Nonlinearity, Relu)        [b:1,c:64]                       64         linear   |                                   Nonlinearity_[1]   
------ -------------------------------- ------------- ------------- ------- -------------- --- --------------- ----------------- ------------------ 
3      linear_1 (Gemm, Gemm)            [b:1,c:32]                    2,080           relu   |                 -2,080(-100.0%)   
                                                                                fc2_weight   | 
                                                                                  fc2_bias   | 
------ -------------------------------- ------------- ------------- ------- -------------- --- --------------- ----------------- ------------------ 
4      relu_1 (Nonlinearity, Relu)      [b:1,c:32]                       32       linear_1   |                                   Nonlinearity_[3]   
------ -------------------------------- ------------- ------------- ------- -------------- --- --------------- ----------------- ------------------ 
5      output (Gemm, Gemm)              [b:1,c:5]                       165         relu_1   |                 -165(-100.0%)     
                                                                                fc3_weight   | 
                                                                                  fc3_bias   | 
------ -------------------------------- ------------- ------------- ------- -------------- --- --------------- ----------------- ------------------ 
model/c-model: macc=2,789/2,789  weights=10,772/10,772  activations=--/384 io=--/0



Generated C-graph summary
------------------------------------------------------------------------------------------------------------------------
model name            : mlp_model
c-name                : network
c-node #              : 5
c-array #             : 12
activations size      : 384 (1 segment)
weights size          : 10772 (1 segment)
macc                  : 2789
inputs                : ['input_output']
outputs               : ['output_output']

C-Arrays (12)
------ ------------------ ----------- ------------------------- ------------- --------- 
c_id   name (*_array)     item/size   domain/mem-pool           c-type        comment   
------ ------------------ ----------- ------------------------- ------------- --------- 
0      input_output       6/24        activations/**default**   float         /input    
1      linear_1_bias      32/128      weights/weights           const float             
2      linear_1_output    32/128      activations/**default**   float                   
3      linear_1_weights   2048/8192   weights/weights           const float             
4      linear_bias        64/256      weights/weights           const float             
5      linear_output      64/256      activations/**default**   float                   
6      linear_weights     384/1536    weights/weights           const float             
7      output_bias        5/20        weights/weights           const float             
8      output_output      5/20        activations/**default**   float         /output   
9      output_weights     160/640     weights/weights           const float             
10     relu_1_output      32/128      activations/**default**   float                   
11     relu_output        64/256      activations/**default**   float                   
------ ------------------ ----------- ------------------------- ------------- --------- 

C-Layers (5)
------ ---------------- ---- --------------- ------ ------ --------------------- ------------------ 
c_id   name (*_layer)   id   layer_type      macc   rom    tensors               shape (array id)   
------ ---------------- ---- --------------- ------ ------ --------------------- ------------------ 
0      linear           1    Dense           448    1792   I: input_output       f32(1x6) (0)       
                                                           W: linear_weights     f32(64x6) (6)      
                                                           W: linear_bias        f32(64) (4)        
                                                           O: linear_output      f32(1x64) (5)      
------ ---------------- ---- --------------- ------ ------ --------------------- ------------------ 
1      relu             2    Nonlinearity    64     0      I: linear_output      f32(1x64) (5)      
                                                           O: relu_output        f32(1x64) (11)     
------ ---------------- ---- --------------- ------ ------ --------------------- ------------------ 
2      linear_1         3    Dense           2080   8320   I: relu_output        f32(1x64) (11)     
                                                           W: linear_1_weights   f32(32x64) (3)     
                                                           W: linear_1_bias      f32(32) (1)        
                                                           O: linear_1_output    f32(1x32) (2)      
------ ---------------- ---- --------------- ------ ------ --------------------- ------------------ 
3      relu_1           4    Nonlinearity    32     0      I: linear_1_output    f32(1x32) (2)      
                                                           O: relu_1_output      f32(1x32) (10)     
------ ---------------- ---- --------------- ------ ------ --------------------- ------------------ 
4      output           5    Dense           165    660    I: relu_1_output      f32(1x32) (10)     
                                                           W: output_weights     f32(5x32) (9)      
                                                           W: output_bias        f32(5) (7)         
                                                           O: output_output      f32(1x5) (8)       
------ ---------------- ---- --------------- ------ ------ --------------------- ------------------ 



Number of operations per c-layer
------- ------ ----------------------- ------- -------------- 
c_id    m_id   name (type)                 #op           type 
------- ------ ----------------------- ------- -------------- 
0       1      linear (Dense)              448   smul_f32_f32 
1       2      relu (Nonlinearity)          64     op_f32_f32 
2       3      linear_1 (Dense)          2,080   smul_f32_f32 
3       4      relu_1 (Nonlinearity)        32     op_f32_f32 
4       5      output (Dense)              165   smul_f32_f32 
------- ------ ----------------------- ------- -------------- 
total                                    2,789 

Number of operation types
---------------- ------- ----------- 
operation type         #           % 
---------------- ------- ----------- 
smul_f32_f32       2,693       96.6% 
op_f32_f32            96        3.4% 

Complexity report (model)
------ ------------ ------------------------- ------------------------- ------ 
m_id   name         c_macc                    c_rom                     c_id   
------ ------------ ------------------------- ------------------------- ------ 
1      fc1_weight   ||||              16.1%   ||||              16.6%   [0]    
3      fc2_weight   ||||||||||||||||  74.6%   ||||||||||||||||  77.2%   [2]    
5      fc3_weight   ||                 5.9%   ||                 6.1%   [4]    
2      relu         |                  2.3%   |                  0.0%   [1]    
4      relu_1       |                  1.1%   |                  0.0%   [3]    
------ ------------ ------------------------- ------------------------- ------ 
macc=2,789 weights=10,772 act=384 ram_io=0
 
 Requested memory size by section - "stm32l4" target
 ------------------------------ ------- -------- ------- ----- 
 module                            text   rodata    data   bss 
 ------------------------------ ------- -------- ------- ----- 
 NetworkRuntime1020_CM4_GCC.a     6,452        0       0     0 
 network.o                          528       40   1,584   140 
 network_data.o                      48       16      88     0 
 lib (toolchain)*                     0        0       0     0 
 ------------------------------ ------- -------- ------- ----- 
 RT total**                       7,028       56   1,672   140 
 ------------------------------ ------- -------- ------- ----- 
 weights                              0   10,776       0     0 
 activations                          0        0       0   384 
 io                                   0        0       0     0 
 ------------------------------ ------- -------- ------- ----- 
 TOTAL                            7,028   10,832   1,672   524 
 ------------------------------ ------- -------- ------- ----- 
 *  toolchain objects (libm/libgcc*)
 ** RT AI runtime objects (kernels+infrastructure)
  
  Summary - "stm32l4" target
  ---------------------------------------------------
               FLASH (ro)      %*   RAM (rw)       % 
  ---------------------------------------------------
  RT total          8,756   44.8%      1,812   82.5% 
  ---------------------------------------------------
  TOTAL            19,532              2,196         
  ---------------------------------------------------
  *  rt/total


Generated files (7)
---------------------------------------------------------------- 
C:\Users\MIT\.stm32cubemx\network_output\network_data_params.h   
C:\Users\MIT\.stm32cubemx\network_output\network_data_params.c   
C:\Users\MIT\.stm32cubemx\network_output\network_data.h          
C:\Users\MIT\.stm32cubemx\network_output\network_data.c          
C:\Users\MIT\.stm32cubemx\network_output\network_config.h        
C:\Users\MIT\.stm32cubemx\network_output\network.h               
C:\Users\MIT\.stm32cubemx\network_output\network.c               
